autograder/hw1_bonus_autograder/outputs/big_weight_update_0.npy (npy, 1328 bytes, 1 tensors)

array f8 [15, 10]
00000000: 1dc9 17c9 d370 9a3f 1f62 27db 7d13 a4bf
00000010: 55e6 28f8 4eb3 a0bf 67a4 7c05 b9a7 9dbf
00000020: c005 6d99 5f10 813f 6ccc edb8 dd01 a8bf
00000030: 3d59 3d92 694c a4bf cf71 c976 45fd a1bf
00000040: f5a4 56d4 3c69 a13f f456 3aae 7b4b 973f
00000050: 6f24 1ed7 04a0 9bbf 4290 1e69 6237 993f
00000060: 287c 615a 6697 4ebf 5b62 2000 6db9 a33f
00000070: ae52 7c9b 8df9 a23f 7038 e177 9763 96bf
00000080: f643 894a b78a a8bf 3691 2eec 37d3 873f
00000090: 50b8 7855 d1f7 a9bf 4a80 2d3c 1d43 a1bf
000000a0: a0d2 fa7c 2bd0 9b3f 1ff0 f9f6 9b81 953f
000000b0: 1335 f630 5a74 50bf b91b 7006 f88d a5bf
000000c0: a32d 9054 5b08 a4bf 109b 5492 7ea5 a13f
000000d0: 0513 0597 651a a5bf 6b71 f421 fb17 a0bf
000000e0: 065d 5a44 a4ef a23f 76b0 258e 061b a7bf
000000f0: 6b73 8738 0b7a 883f 319b 8bee 39bd 8f3f
00000100: 37cf da6d 496c 9d3f 62c7 7847 85da 52bf
00000110: 8a1c 560c d9fc a03f 21d7 7769 a4fd 59bf
00000120: 0d76 a691 9175 83bf 1e5e 80c9 1f7b a0bf
00000130: 8491 8c6a da59 a23f 570d 999e 31d0 81bf
00000140: 1bde 51d4 2f01 a03f 2a53 76aa fb59 993f
00000150: d1f4 4907 9d8e a43f e2d3 8379 e6d9 a4bf
00000160: cb34 d188 f3cd a23f 8be9 5f21 ec14 853f
00000170: 37f4 dd0f 5376 9e3f 6198 0238 62ff 983f
00000180: d15f 9ca9 4cef a13f 9a10 8ba3 55b2 86bf
00000190: 0cf0 8884 871d 9e3f 3b46 4feb d2bf 89bf
000001a0: 983f 7731 9ab4 a83f b609 5cbb 3d06 793f
000001b0: ed47 8a09 356a a3bf 7a10 f46a e997 9bbf
000001c0: 994a 0c2d db12 a13f 4e36 a8d7 866e 743f
000001d0: 41a2 e84f 016b 93bf c1f1 038c a752 9ebf
000001e0: c41f 2e58 ba38 a23f 2671 d793 c9b7 8f3f
000001f0: 6ba2 0151 f420 94bf d0c3 96b5 3277 a0bf
00000200: 7ec8 99e5 7526 a73f 0c55 e634 500d 6bbf
00000210: fd73 a4e7 065d 9c3f e1a8 c3f1 54d5 76bf
00000220: a225 af1d 0518 73bf e713 a78f bbe6 a7bf
00000230: 13b8 c18b 0662 593f db47 10e5 88e0 993f
00000240: 3299 0cb4 3a1a a43f 8096 5c67 bbab 94bf
00000250: 9c1e 2721 bf6f 963f ffac 5105 7035 923f
00000260: 4d29 bfea 0a6d 9bbf 6bab 32ca a331 98bf
00000270: 31b3 4a3c fd76 98bf 5903 1113 7bf8 843f
00000280: 9d51 fba5 c173 97bf 86a5 4d9c 5c07 a53f
00000290: a272 6600 3d4d 73bf 182c 000a 30f6 943f
000002a0: 2fa8 7991 ad6f 963f de66 616b 5a1a 903f
000002b0: b1ea 295f d384 9dbf 9b2e 8fa0 86d2 a53f
000002c0: 1953 aac4 5566 933f 79f3 47d0 eafc a13f
000002d0: 7a67 03b1 15d3 92bf d5a1 579d 5066 73bf
000002e0: 674c a97a ea8a a6bf 7a17 3371 000b a93f
000002f0: c566 d745 1c58 9ebf 83f3 7320 0aab 9bbf
00000300: a812 866b 2bf0 973f ee2f 75d2 b4a8 a53f
00000310: 6f61 f6cc ac5d 563f c189 72a2 45fb 9abf
00000320: e777 2c93 dac8 9d3f 6297 7237 c235 a33f
00000330: d780 1571 2c90 883f 0dfa 1c62 f314 903f
00000340: b8da 76fc 4820 8d3f 70bc 8e1b a2e1 93bf
00000350: be61 436c d094 673f f958 900a 07ba 733f
00000360: 2d20 89a1 0f54 9abf 0808 1137 cc84 9bbf
00000370: 3703 ff15 9daa a43f b9d1 85c0 6f1b 7ebf
00000380: 7362 3c90 7563 9fbf 65c7 cf06 e51f 703f
00000390: 5503 3922 1d0d 95bf d60d 0303 8aae a1bf
000003a0: fefb 01df 2ed7 94bf a086 519c fa94 913f
000003b0: bae3 5842 f461 a8bf 61d8 abf0 7503 a93f
000003c0: effa d461 e2f5 95bf de16 0b0b c446 a33f
000003d0: e959 0e93 7e2e a33f 1a0c 8e99 0842 90bf
000003e0: 8c8c 32ff 0e29 9dbf 2b3e 5145 74d5 8ebf
000003f0: 2385 de70 9e7a 8f3f 077a dd8f 7c48 8a3f
00000400: 1402 772f adc1 9d3f cdda 5e0f bbcc a63f
00000410: b49d 9ba6 09bb a3bf 25e7 a875 c33e a9bf
00000420: a412 59f9 56ff a3bf baec b5cb 73d9 98bf
00000430: 8085 3d74 d75e 613f 6dd9 75da 094b a4bf
00000440: f531 71bc 9b31 a0bf d44e ef34 314a a4bf
00000450: 5236 8d7f 306f a73f ed93 7ae1 66ad a1bf
00000460: e28b 980e ea99 a33f 4daf 6468 3910 64bf
00000470: 67cd 053c 37bf 5cbf 67b2 2eec 1bba 90bf
00000480: 6285 6653 c7c3 a03f 60a8 4459 c00e a2bf
00000490: 1a2c df54 3757 79bf 5aca 9447 bb4c 98bf
000004a0: 40fd d8cf b944 9dbf 971f 5a7e 4220 95bf
0.025821026943909964 -0.03921120929925714 -0.03261801509183885 -0.028960123977558896 0.008332011098562186 -0.046889237236336395 -0.0396454802527608 -0.03513543200526536
0.034006024284574034 0.02274888277914662 -0.02697761118864544 0.024625337282160105 -0.0009335756083251922 0.03852406145614814 0.03706018946664834 -0.021864287082557998
-0.04793331894746437 0.011633335967254337 -0.05071882408479722 -0.03371516570655382 0.02716129255596178 0.02100223250316457 -0.0010043030523292959 -0.04209876135433128
-0.039126257012039 0.03446574722538831 -0.041217016873394775 -0.031432960410003506 0.03698457083117472 -0.045128064014392885 0.011951530134803176 0.015497639267278625
0.028733393983841195 -0.0011507321886594303 0.03317907596197596 -0.0015863519273557408 -0.009501588113205473 -0.0321893628571923 0.035841775423509 -0.008697879459879472
0.03125905482096077 0.024757320670306594 0.04015055383659106 -0.04072494729363264 0.036727533770866204 0.010293812531007493 0.02974824699730424 0.02441171137675047
0.035028835014770394 -0.011082333615725571 0.02940952059201156 -0.012572906309205148 0.048252886331851375 0.006109467640046542 -0.037919671454019845 -0.02694668498317341
0.03334698605444437 0.004988219001928208 -0.018962879659883084 -0.029612176819669992 0.03558904959123724 0.015487265419260664 -0.019656960911023463 -0.03215940920507132
0.04521530559294805 -0.0033022467170648103 0.02769861973603226 -0.005574542821913137 -0.004661579117006738 -0.04668222549984318 0.0015492500233693681 0.025270594578678512
0.03926261375299801 -0.020186355766006248 0.02191065444801997 0.01778197319474106 -0.02678315217762277 -0.02362686082475866 -0.023891407780570254 0.010239564437257863
-0.022902513271064618 0.0410717907714782 -0.00471233204589497 0.020470381365196827 0.021910392765143335 0.015725529483780025 -0.028827002223332957 0.0426218100543256
0.018945064667224096 0.03513273041242022 -0.018383349350961954 -0.004736246968129317 -0.044028594468408504 0.048912061518008934 -0.02963298965719365 -0.027019651633043217
0.023377111852385696 0.04230275219978795 0.0013651072984882347 -0.026349151649478268 0.02908650897290235 0.03751952101565227 0.011993739319848746 0.015704920638421927
0.014221735195730431 -0.0194154099769403 0.002878577304823631 0.004816081528608012 -0.025711292490342586 -0.02687377058123988 0.04036417859561541 -0.007350384265340564
-0.030652844360789588 0.003936667094409295 -0.020557837690151477 -0.03453475271956179 -0.020352108346283863 0.017169872084542903 -0.04762233076002738 0.04885452807313651
-0.021445786687077136 0.03764927515798687 0.037464099360636834 -0.01587689816689073 -0.028476938558594386 -0.01505556904353885 0.015370595759864053 0.012833569660583256
0.029059129735971537 0.044530721308026246 -0.03853635939395464 -0.049306972611203904 -0.03905746263311485 -0.024267014797697974 0.0021204193198378074 -0.03963499824287706
-0.03162848162955704 -0.039628541671530876 0.0457701831534051 -0.03452607633997915 0.038283647805904555 -0.0024491425748659813 -0.0017545737647111871 -0.0163349497703841
0.03274367230484178 -0.035268793961521494 -0.006186691416540513 -0.023730207675905703 -0.028582480727206816 -0.020630873643795757
