autograder/hw1_bonus_autograder/outputs/big_weight_update_3.npy (npy, 2528 bytes, 1 tensors)

array f8 [20, 15]
-0.02305767391629345 0.011638297234067122 -0.007344778675513612 0.011782942083977543 0.0003969553887581319 -0.017752660896889597 -0.0037764016228391353 -0.0155758964283745
0.00035921179529269467 0.010855706149167295 0.003137945943107212 0.009387885847769025 -0.014431308693859845 0.03149450295585847 0.02856345946048686 0.010721006861436474
-0.023520715798508986 -0.008384979174470815 -0.0161940018540699 -0.021498155056797034 -0.011684761469292744 -0.02689472217958717 -0.03080796361835402 0.023074746873815225
0.004487746267025276 -0.00832011247225873 -0.030276899408326813 0.0033663152500870816 -0.0010656125681691867 -0.019122440486317047 0.02651223612733212 -0.002398181045543849
-0.02907321739702722 0.03123355293954395 0.01355214271167781 -0.013756018361028162 -0.03122836537904179 0.018858481645044348 -0.003550729314031442 0.032046690165438534
0.028534285266953615 0.008057670326969867 0.023300546395389882 -0.022394782878890237 0.010882130554682914 0.03243291221407566 -0.031127090719140466 -0.0127337443465394
-0.030527353312554895 0.0032194826513279057 0.016868893118097538 0.014385094858534408 0.026409814282201557 -0.010662960703964974 0.025548223364347256 0.010352121513651643
0.0066277588170667425 0.012446208589653595 0.015825531206214535 0.015658555818143453 -0.02206168678094215 0.004302080014424862 -0.017050452776798328 0.0004969067162648659
0.01030229188742365 0.0010970413199840007 -0.02853452561196411 0.03274621878634046 0.02492697876773431 -0.011737435436340322 0.010047174045210838 -0.018427585729426748
0.018289428577427682 0.022928147228836647 -0.0015832697153613648 -0.032206988942922544 0.027239929033075216 -0.02209357953890655 -0.01816157254137034 0.01978076615738367
-0.027031958750776467 0.030258836276829897 -0.0002459324531637725 -0.013315980120456468 0.02845676444852451 -0.014625184346032388 -0.016430093821972545 0.016464422187526327
-0.013260649276913816 0.0150740346080202 -0.03261869043582394 -0.014759307608449493 0.009024115227131499 -0.03142447280784389 -0.00475587650075644 0.021827760543508993
-0.021834274764062033 -0.011701621994715103 -0.009215405841551434 -0.02110448244549385 0.02758324481701919 0.00472527460655068 -0.019042841899168696 0.005807225443573542
-0.0012933366543564178 0.008157747358645606 0.021994640747802663 -0.01447201400713108 -0.021109861142952772 0.025945015590779656 0.021707836389482156 -0.02775199790776122
0.029882179752140244 -0.010698155197805616 -0.007098771613621897 0.025317183453878078 -0.016181088093071463 0.02941343283323908 0.01949555015939375 -0.01029330335042881
-0.028096802714466934 -0.0073261922229537054 -0.032060873102511225 -0.0007396235907084196 0.006298487355595905 0.0031570024638201428 -0.022363922207062004 0.002046104637380693
-0.02166020672548034 0.01968176844104432 0.02879915870144265 0.004803576607500038 -0.027948871421909428 0.01564567553558529 -0.01530862775021217 0.004766731018932331
-0.008040091094326483 0.021147384106833932 0.005334014610595713 0.019895758793928093 0.0033228895513004878 0.002511088333746997 0.026585626355896265 0.029214684928258915
0.0016258995891033656 0.016260234118782562 0.0032533695214660625 -0.009309932797619432 -0.03287931191830581 0.0008523674305559225 -0.004103444138728459 -0.0038178117605627386
0.029108393418034367 0.029863005965943774 -0.009299061480005505 -0.03134275488167243 0.021017896079607367 0.009510108807331549 -0.002205950988278191 -0.014285397213776469
0.009695588234430352 0.028923020933624366 -0.017697440938305952 -0.012265070060965895 -0.0016359088349289083 0.016956940700546038 -0.0005749262376193961 -0.026217341248392596
-0.000564430584757251 -0.030079040482774648 0.021971186656736058 0.02542162515225923 0.01245129166389165 -0.009589479082639482 0.02161609579472857 0.022738224500112973
0.005236897326138286 -0.011464670032505613 0.016866923227643625 0.018207040720458437 -0.004181140323135013 -0.0060401675617719934 -0.02111195714529494 -0.019037796016551128
-0.034152801383322155 -0.0296289259754711 -0.02495211999087084 -0.014818266259592707 0.01062862285860066 -0.027663392340294485 -0.0033658458330242135 -0.031205781187784484
0.029977958584120036 -0.008923752946448782 -0.018327518078249543 0.010021621216866398 -0.008148436817781938 -0.03277895641888351 -0.0012196816773078914 0.0021325036928847418
-0.01959348576276778 -0.02098520195738835 -0.019904010175449176 -0.024300327124894872 -0.02981009560448135 -0.01752102769471749 -0.025586187332574728 0.016262436719744637
0.009990400354851894 -0.0015997633503813669 0.016672499352792632 0.02898660708139093 0.005926656795735446 0.0167231917641375 -0.009715118407136911 0.03189605087819106
0.029765432338084943 -0.012431695387725657 0.02903519375291462 -0.003905484550344027 0.0014267504489322185 0.008816304616511426 -0.02581128691369988 -0.02386243508464674
0.029776713380949383 -0.030296155824001907 0.0059812419920918306 0.02734436691150688 -0.0014111402897332 -0.028772250086662066 0.030404999545341645 0.03148864453260828
-0.023596078676777356 -0.03056808413003123 0.020792435566806988 -0.02389819255210453 0.004368489047973031 4.116817900898055e-05 0.026569894736138872 0.019818231197740517
-0.0011217209781220871 0.0037920679868213925 0.017611005814849125 -0.0021926255141455665 0.022105690672337558 -0.0209788984552729 0.030649649462740187 0.026311945378000755
0.00977171600237877 0.014001491537705675 -0.00811221509121798 0.014401175487832261 0.011837052159610515 -0.0006909998488576245 0.018087285787223694 -0.03261930664347494
00000000: 66ba 914d 6e9c 97bf e2f5 02d0 d1d5 873f
00000010: deb1 5203 8f15 7ebf b3f4 35b7 a721 883f
00000020: 55dd a569 ce03 3a3f b160 e0e7 c02d 92bf
00000030: 55d7 ee2e b0ef 6ebf 6b42 206e 41e6 8fbf
00000040: 4434 c2e9 928a 373f b7d4 1537 843b 863f
00000050: cdec 78e6 bfb4 693f abd8 8eb5 f439 833f
00000060: e663 0777 298e 8dbf e6fb 6528 0c20 a03f
00000070: 3941 f950 bd3f 9d3f ebec cc2e e5f4 853f
00000080: 1a4d 8884 d015 98bf 11ec a7da 242c 81bf
00000090: 951a 6b11 2995 90bf 11b8 92c3 9c03 96bf
000000a0: f735 fa22 2eee 87bf 730b c940 4a8a 9bbf
000000b0: beeb c970 1f8c 9fbf b1fd be0c e8a0 973f
000000c0: 5ea4 3137 be61 723f 8438 bd97 220a 81bf
000000d0: a8d6 2153 e800 9fbf 995f 07bd ac93 6b3f
000000e0: 4400 5ac8 8075 51bf fca3 0842 d594 93bf
000000f0: e260 710c 0626 9b3f 88cc 22a5 59a5 63bf
00000100: 4d90 a397 5ec5 9dbf b324 a741 b0fb 9f3f
00000110: fc27 e6cd 39c1 8b3f 11ce de87 1d2c 8cbf
00000120: 93c6 0a20 54fa 9fbf c4b4 ab47 a34f 933f
00000130: 009b fb48 6b16 6dbf d744 697c 6c68 a03f
00000140: ef2b 2578 1738 9d3f e64f 4a34 8a80 803f
00000150: b50f fd32 19dc 973f 4f6f 4370 a8ee 96bf
00000160: 88cd bed6 5e49 863f 6507 8cf2 0b9b a03f
00000170: 2822 a2b2 c7df 9fbf 002d 313c 2614 8abf
00000180: 6d85 7100 9042 9fbf 44dc 5196 be5f 6a3f
00000190: 333c 0c41 1446 913f 66f4 bcbf ee75 8d3f
000001a0: bcbd 8aa2 2c0b 9b3f 7339 045c 76d6 85bf
000001b0: 2079 483f 5029 9a3f d147 c33a 7e33 853f
000001c0: 4d5b d775 b525 7b3f b365 d0d6 657d 893f
000001d0: fcdb e36b 9134 903f bee9 90e4 cb08 903f
000001e0: ebfd dfbc 5697 96bf deb9 77cf 0e9f 713f
000001f0: ccbd 3b84 ac75 91bf c602 3a0c 5b48 403f
00000200: 9eb7 d735 5e19 853f ee47 de25 53f9 513f
00000210: dcb4 3d99 2738 9dbf 748e 82c5 1cc4 a03f
00000220: 20cc 613a 7586 993f c435 b4ea cb09 88bf
00000230: 06fd 87df 9c93 843f 0b60 3558 aede 92bf
00000240: a70a 69c6 76ba 923f 26dd 05ea 797a 973f
00000250: bc81 7ce9 b6f0 59bf f5ca 6c38 6f7d a0bf
00000260: 13a3 5eb1 c8e4 9b3f fde2 4806 b39f 96bf
00000270: 6cbc 6f80 f298 92bf 0172 f1be 6841 943f
00000280: e128 200b 44ae 9bbf fe60 e520 2cfc 9e3f
00000290: d8aa e6d7 0f1e 30bf 5768 0d99 6845 8bbf
000002a0: 3e24 a022 c523 9d3f 23a4 b603 cff3 8dbf
000002b0: 76d6 8aee 0cd3 90bf 8631 5fab 0cdc 903f
000002c0: f39b be37 6628 8bbf de20 48ad 22df 8e3f
000002d0: 4807 52a1 65b3 a0bf d54d ebbb 203a 8ebf
000002e0: ebf8 343e 3c7b 823f 01e9 0156 de16 a0bf
000002f0: cd92 8de0 e57a 73bf e197 b736 045a 963f
00000300: b391 2c60 b95b 96bf ab3a 381e 05f7 87bf
00000310: 77af abd5 86df 82bf 520f 9cd7 699c 95bf
00000320: 336b a039 c83e 9c3f e964 653e cf5a 733f
00000330: da24 b87c f77f 93bf 4436 c535 51c9 773f
00000340: ab00 86a8 a530 55bf 8051 ea50 02b5 803f
00000350: 00dc cb5a c385 963f 116c f1d6 80a3 8dbf
00000360: 41a7 edcc d29d 95bf 3e91 d385 5491 9a3f
00000370: e260 703d 943a 963f 0e65 a60d 056b 9cbf
00000380: 3f15 1323 6f99 9e3f 8eea 9d15 eae8 85bf
00000390: d4a7 c1fe 9913 7dbf f34e d86b bfec 993f
000003a0: 7499 b170 c691 90bf a9d1 5310 8e1e 9e3f
000003b0: 2093 6839 a4f6 933f 552d 10ca a714 85bf
000003c0: e889 1f83 68c5 9cbf ef5a 07c0 1102 7ebf
000003d0: 4ab9 e962 486a a0bf efa6 1491 693c 48bf
000003e0: 800b 4e53 71cc 793f 4468 bcca b6dc 693f
000003f0: cd5e f569 91e6 96bf 7749 0e10 fec2 603f
00000400: 4bca 0ade 172e 96bf e67d 201f 7527 943f
00000410: 399c 19d3 867d 9d3f cdbe ed46 eaac 733f
00000420: 4d6c de02 a19e 9cbf 6625 ff82 6b05 903f
00000430: 9538 453c 215a 8fbf 08bf 5c9d 4786 733f
00000440: ccb8 74c2 5277 80bf 8309 8aec a8a7 953f
00000450: a23b f1a4 1ed9 753f f566 65c5 8d5f 943f
00000460: 620c 6fbe 9a38 6b3f c07a aa48 2292 643f
00000470: 6a10 f82e 4339 9b3f 53bb 5151 74ea 9d3f
00000480: 0a2f f463 84a3 5a3f 8bd8 0fd7 85a6 903f
00000490: 2dba 4976 cfa6 6a3f 9e5d 2607 1611 83bf
000004a0: 0be7 cea2 8ed5 a0bf 3353 841e 2dee 4b3f
000004b0: 2261 07e6 c5ce 70bf 18c2 ec14 8846 6fbf
000004c0: 5807 1437 97ce 9d3f d298 ef67 6894 9e3f
000004d0: 105c 85e7 620b 83bf 18dd 5d56 280c a0bf
000004e0: e3a9 2b21 b785 953f 9e9b 7832 097a 833f
000004f0: 7a4e 3deb 3612 62bf 9d91 bf8e a941 8dbf
00000500: 2613 0fd3 47db 833f f0b6 0b14 ff9d 9d3f
00000510: 832f 3628 471f 92bf 8427 5cd6 6d1e 89bf
00000520: bc17 7fbc 7fcd 5abf af08 ff06 295d 913f
00000530: de21 b0b1 d4d6 42bf 82ea fffc b7d8 9abf
00000540: 22aa 8173 c97e 42bf 7e9f ac3c 0acd 9ebf
00000550: 0879 9460 9d7f 963f c67c 8f62 2008 9a3f
00000560: e63b ea13 1080 893f 2b6a 5d18 a6a3 83bf
00000570: 22b2 05a2 8722 963f de6b 636a b048 973f
00000580: efed f8eb 4873 753f fcd6 caf6 c97a 87bf
00000590: a665 960e 9045 913f 0424 ced1 dda4 923f
000005a0: 9a66 2a4f 3e20 71bf b523 3e22 93bd 78bf
000005b0: 0b71 f975 5f9e 95bf cbb3 1ddd a47e 93bf
000005c0: 872c 04da 797c a1bf ea2d 5290 0b57 9ebf
000005d0: 747f 4e6d 0c8d 99bf 4139 bf07 0a59 8ebf
000005e0: bc37 a29c 75c4 853f 8588 97d5 ca53 9cbf
000005f0: c5c4 d6b8 b092 6bbf dc35 9786 68f4 9fbf
00000600: cae8 e0be 8ab2 9e3f 8d2a 80d8 9d46 82bf
00000610: ab3d 0deb 72c4 92bf e2e3 083b 3786 843f
00000620: 62cb 2aad 20b0 80bf b0d9 a143 67c8 a0bf
00000630: c4a9 983a b7fb 53bf dc43 d333 2f78 613f
00000640: 864e 4392 5010 94bf 3281 6d10 257d 95bf
00000650: de1c 0d83 b761 94bf 6d54 2259 2fe2 98bf
00000660: 44f7 d8a6 8986 9ebf 75b5 c343 08f1 91bf
00000670: d07b 4af7 4333 9abf 8e52 75a7 19a7 903f
00000680: 8860 62d6 d875 843f 00ca 5bd1 e435 5abf
00000690: efee d97d 9812 913f cb0d bf45 aaae 9d3f
000006a0: f9fa cbd1 8c46 783f c0c9 d866 e21f 913f
000006b0: 05f1 ae1e 85e5 83bf 7469 c9de ad54 a03f
000006c0: 4404 c659 d47a 9e3f 6430 fee8 c975 89bf
000006d0: 1c3c 68de 66bb 9d3f 2e7d 660d 65fe 6fbf
000006e0: 4f47 22a1 3960 573f d2f4 fe5f 480e 823f
000006f0: efe6 a524 466e 9abf ed79 2ae9 646f 98bf
00000700: 6d3a 9d68 c97d 9e3f 5e9d d599 f405 9fbf
00000710: 888d ed6b c97f 783f 2080 7566 2900 9c3f
00000720: bc07 3f59 c01e 57bf 8041 9e04 7976 9dbf
00000730: 2f82 bafa 7c22 9f3f 1504 ed94 471f a03f
00000740: da22 ec08 9229 98bf a837 8f66 3d4d 9fbf
00000750: 40f3 0dbb 9c4a 953f 9579 c78d c478 98bf
00000760: 6fef 8059 b1e4 713f ef2e 1edc 7f95 053f
00000770: 15ad cc73 2335 9b3f a279 6ffb 3a4b 943f
00000780: 3331 a4ba d660 52bf d278 9aff 8a10 6f3f
00000790: 8a07 1998 9e08 923f 082a 05dc 44f6 61bf
000007a0: b804 f9c9 dfa2 963f a004 160b 7e7b 95bf
000007b0: 422a 4e28 9f62 9f3f 4313 92c3 84f1 9a3f
000007c0: ac85 3f85 3103 843f 3751 ff61 d0ac 8c3f
000007d0: 4e83 1e14 239d 80bf 3f1d f40d 5d7e 8d3f
000007e0: 85a9 403f 063e 883f 2222 4ee0 86a4 46bf
000007f0: 13d7 b733 7985 923f b6fb 804e 7ab3 a0bf
